assignment3/res/simple_classification_dataset/custom_model/chk.pt (torch, 397215 bytes, 4 tensors)

fc1.weight f4 [128, 768]
0	0xbd3a8152	-0.045533486
1	0x3d9b5138	0.075838506
2	0xbaf3b04c	-0.0018591969
3	0x3d511fb1	0.051055614
4	0x3d1ae767	0.03781834
5	0x3cab8c55	0.020940939
6	0x3ca18d37	0.019720657
7	0xbb9d4eb3	-0.0048006414
8	0x3ba68e12	0.005082854
9	0xbc0269f6	-0.007959833
10	0xbc92cfc2	-0.017921332
11	0x3a2a7ad0	0.0006503286
12	0xbcbb2f14	-0.022849597
13	0xbc1d2015	-0.0095901685
14	0xbc678bb9	-0.014132434
15	0x3d10eb26	0.035380505
16	0xbb897f31	-0.0041960706
17	0x3a5c02ad	0.00083927327
18	0x3d4c7d27	0.049924042
19	0x3c8da2aa	0.017289478
20	0xbb29fccb	-0.002593803
21	0xbc3aea35	-0.011408378
22	0x3cf809b9	0.030278074
23	0x3dce2c1e	0.100670084
24	0xbc0955ea	-0.0083823
25	0xbcf94abc	-0.030431144
26	0x3cf01306	0.029305946
27	0x3c62aa7f	0.013834595
28	0xbcb06deb	-0.021536788
29	0x3d053d28	0.032529026
30	0x3d197c57	0.037472095
31	0xbd1a438a	-0.037662067
32	0xbd12d72d	-0.03584974
33	0x3ca818ae	0.02051958
34	0xbca1a270	-0.019730777
35	0xbcbdafc1	-0.023155095
36	0x3c141b52	0.009039717
37	0x3da34a0d	0.079731084
38	0xbd45d1f9	-0.04829595
39	0xbd1321ab	-0.03592078
40	0x3cfc2013	0.030777013
41	0xbc5e566f	-0.013570412
42	0xbc8dd2bb	-0.017312398
43	0x3c8083ba	0.015687812
44	0x3c45aa9c	0.012064602
45	0x3cbbc577	0.022921307
46	0x3c8ff100	0.017570972
47	0x3cfbe0fc	0.03074693
48	0x3ccc0a89	0.024907367
49	0xbcdb3123	-0.026756829
50	0xbcc7b13f	-0.02437651
51	0xbb6e17d7	-0.0036330128
52	0x3c1e586a	0.009664634
53	0xbdbfd307	-0.09366422
54	0xbd001d52	-0.031277962
55	0xbcbae243	-0.022812968
56	0xbbd4900f	-0.0064868997
57	0x3c057f27	0.008147991
58	0xbc5759fb	-0.013144012
59	0x3d0b548f	0.03401619
60	0x3d15f1f9	0.036607716
61	0x3cec3076	0.028831702
62	0xbd68703c	-0.05674766
63	0x3ced9bff	0.029005049
64	0xbc4df2ee	-0.012570126
65	0x3d52712b	0.051377457
66	0xbca5ef6b	-0.020255765
67	0x3c84d32c	0.016213976
68	0x3c016227	0.0078969365
69	0xba93ea9d	-0.001128513
70	0x3c945ef8	0.01811169
71	0x3c2a27a7	0.01038543
72	0x3ca9fd50	0.020750672
73	0xbd7de765	-0.061988253
74	0xbd58d3e9	-0.05293647
75	0x3be6b033	0.0070400476
76	0x3c599b05	0.013281588
77	0xbbfce98c	-0.0077182706
78	0x3cdec151	0.02719179
79	0x3be69dbe	0.0070378473
80	0x3c246f66	0.010036325
81	0xbd281108	-0.041031867
82	0xbbb3a647	-0.0054824683
83	0x3d53df8d	0.051726867
84	0x3d19b3a7	0.037524845
85	0xbc7e8c53	-0.015536386
86	0x3c1732fd	0.009228465
87	0xbc841130	-0.016121477
88	0x3c49c5cd	0.012315226
89	0x3cfdafcc	0.030967616
90	0xbcea9a98	-0.02863817
91	0xbbd7597b	-0.006571946
92	0x3d344f06	0.044020675
93	0x3d486908	0.04892829
94	0xbcb590b2	-0.022163723
95	0xbc60669d	-0.01369634
96	0xbc70058d	-0.014649761
97	0x3b25e964	0.0025316114
98	0xbd052532	-0.032506175
99	0x3d07222a	0.032991566
100	0xbb128a66	-0.0022360324
101	0x3ca4ac7f	0.020101784
102	0xbbdfc90c	-0.0068293866
103	0xbb80c9ba	-0.0039302977
104	0xbd1bb6b8	-0.03801605
105	0xbc2111f1	-0.009830938
106	0x3c46bc32	0.01212983
107	0xbcc6ac78	-0.024252161
108	0xbc217be5	-0.009856199
109	0xbcbf183d	-0.023326987
110	0x3c86211c	0.01637321
111	0xbcfd587c	-0.030925982
112	0xbd5f532e	-0.054522686
113	0x3be76346	0.007061395
114	0xbbfeb983	-0.0077735796
115	0xbc583ddb	-0.013198341
116	0xbc0396ca	-0.008031556
117	0xbd0a8a22	-0.03382314
118	0x3c365c5b	0.011130418
119	0x3d0eae78	0.034834355
120	0xbc6f0b9c	-0.01459017
121	0xbc3c3778	-0.011487834
122	0xbc80814b	-0.015686652
123	0x3d4c0847	0.04981258
124	0xbd02d181	-0.03193808
125	0xbd56aeba	-0.052412726
126	0x3ced9cae	0.029005375
127	0xbc4acd80	-0.012378097
128	0x3dadd802	0.08488466
129	0xbb1775a5	-0.0023110893
130	0xbc154bb3	-0.009112286
131	0xbbc6ce0c	-0.006067043
132	0x3cfb8cca	0.030706782
133	0x3c6846c2	0.014177026
134	0xbcec6020	-0.02885443
135	0xbb1878f4	-0.0023265453
136	0xbc42c5e9	-0.011888006
137	0xbca77756	-0.020442646
138	0xbd2efca2	-0.0427214
139	0xbd08a8bf	-0.033364054
140	0xbcf59b23	-0.029981202
141	0x3d09b4f0	0.03361982
142	0xbc2ecaef	-0.0106685
143	0xbd08a0ba	-0.033356406
144	0xbcbb4462	-0.022859756
145	0xbc4ecfcb	-0.012622784
146	0xbc8afe71	-0.01696703
147	0x3c701e94	0.014655728
148	0x3cad8765	0.021182725
149	0x3cd4ae32	0.025961969
150	0xbb318150	-0.0027085133
151	0x3d884002	0.066528335
152	0xbb1bc69b	-0.00237695
153	0xbc17e9a3	-0.009272012
154	0x3c92e325	0.017930577
155	0x3d35ab71	0.044352952
156	0x3d18f6bb	0.037344676
157	0x3d7af949	0.061272893
158	0x3c5a9b92	0.013342755
159	0x3d5f300b	0.054489177
160	0x3c18ce38	0.00932651
161	0x3d9068ec	0.07051262
162	0x3cf076cd	0.029353524
163	0x3ca2fc17	0.019895596
164	0xbd0f8bcc	-0.03504543
165	0xbd387b1f	-0.045039292
166	0xbb550ac3	-0.0032507635
167	0x3c01c2ce	0.00791998
168	0x3db84d69	0.0899914
169	0xbd3740a5	-0.044739384
170	0xbd737a6d	-0.059442926
171	0x3d303437	0.043018546
172	0xbd805462	-0.06266095
173	0xbcdc8dce	-0.026923086
174	0xbd8680f8	-0.065675676
175	0xbd8dab9d	-0.06917498
176	0x3d1795df	0.037008163
177	0xbd1866e3	-0.037207495
178	0xbba8b548	-0.0051485635
179	0x3a976352	0.0011549986
180	0xbcc14391	-0.023591788
181	0xbcccf50a	-0.025019187
182	0x3d3fc892	0.046822138
183	0xbcc20ed1	-0.023688706
184	0x3bdf5ea0	0.0068167
185	0x3c8f1957	0.017468138
186	0x3d364365	0.044497866
187	0xbc100e76	-0.00879251
188	0x3c9679bd	0.018368596
189	0xbba55981	-0.00504607
190	0x3b48cfe0	0.0030641481
191	0x3d016a3c	0.031595454
192	0x3c200c9a	0.009768629
193	0xbbd783b4	-0.0065769795
194	0xbd0b69f6	-0.0340366
195	0x3d4a4b23	0.049388062
196	0xbd8ff60a	-0.0702935
197	0xbc384384	-0.011246566
198	0xbd692333	-0.056918334
199	0x3c81f133	0.015862083
200	0x3c738a88	0.014864571
201	0x3bedb088	0.00725371
202	0xbd3b1bd6	-0.045680843
203	0x3d824651	0.06361068
204	0x3c240cce	0.0100128185
205	0x3d0b158a	0.033956088
206	0xbcd4dab1	-0.025983186
207	0x3d55e2d4	0.052218273
208	0xbd3097ec	-0.043113634
209	0xbd065028	-0.032791287
210	0x3cc00d56	0.02344386
211	0x3c1de9b5	0.00963824
212	0x3da9b34f	0.082861535
213	0xbd68e060	-0.056854606
214	0x3d329fa8	0.04360929
215	0xbcc413b8	-0.023935184
216	0xbbe06798	-0.006848287
217	0xbd091cd2	-0.03347475
218	0xbc067b3a	-0.00820809
219	0xbd0a8f03	-0.033827793
220	0x3d3b889b	0.045784574
221	0xbd084b13	-0.03327472
222	0xbd44bea9	-0.04803339
223	0x3c58e964	0.013239238
224	0xbd95b95c	-0.07310745
225	0x3d1789c5	0.03699662
226	0xbd0f6e23	-0.035017144
227	0x3d3b271e	0.045691602
228	0xbd14728b	-0.03624205
229	0xbd215083	-0.039383423
230	0xbbc66454	-0.0060544405
231	0x3d5934fc	0.053029045
232	0x3d9d1724	0.07670429
233	0x3d6cca2e	0.05781
234	0xbd52f70b	-0.05150513
235	0xbd656ff2	-0.056014962
236	0x3bb5aaae	0.0055440282
237	0xbca1c037	-0.019744975
238	0x3d098ec3	0.033583414
239	0xbd2b90e5	-0.04188623
240	0x3bdefa8e	0.006804771
241	0xbc890956	-0.016728085
242	0xbd2631bf	-0.040574785
243	0xbcf13eda	-0.029448915
244	0xbcd6b4ca	-0.026209254
245	0xbc8a4a57	-0.016881151
246	0x3ce99e3c	0.028517835
247	0xbd3b0c91	-0.04566628
248	0xbcaf12dd	-0.0213713
249	0x3d445d3e	0.047940485
250	0x3cd2224f	0.025651125
251	0xbd390e36	-0.04517957
252	0x3c85952a	0.016306479
253	0x3c6e0da8	0.014529623
254	0xbc2dd0a7	-0.010608829
255	0x3d894d03	0.06704142

fc1.bias f4 [128]
0	0x3d7d6201	0.061861042
1	0x3d00eade	0.031473987
2	0x3a473ab8	0.00075999973
3	0xbcd0ba81	-0.025479557
4	0xbd3ebacf	-0.046564873
5	0x3bcb49f6	0.006203885
6	0xbd4fb57e	-0.050710194
7	0x3d37c7ce	0.044868283
8	0x3b365852	0.002782364
9	0x3d1685ad	0.036748577
10	0xbd72b77f	-0.059257027
11	0x3d286d5c	0.04111992
12	0xbd09430b	-0.033511203
13	0x3b9d3bc1	0.004798383
14	0x3d3034f4	0.04301925
15	0x3d714f8a	0.058913745
16	0x3d8695f5	0.06571571
17	0x3d16e2c1	0.036837343
18	0x3c100e9d	0.008792547
19	0xbd18afa6	-0.037276886
20	0x3d6ff0a5	0.058579106
21	0x3d863302	0.06552698
22	0x3d139550	0.036031067
23	0xbd1f0c03	-0.038829815
24	0x3c10c44b	0.008835862
25	0x3c6d3e3e	0.014480172
26	0xba910ad2	-0.0011065847
27	0x3d5a9f8b	0.05337481
28	0xbc520de0	-0.012820691
29	0xbcaca342	-0.021073941
30	0x3d2013a0	0.039081216
31	0x3bd5f781	0.006529749
32	0xbd7871e0	-0.060655475
33	0xbd051ea8	-0.03249994
34	0x3d76e85b	0.060280185
35	0xbd7528a6	-0.05985322
36	0x3ce78139	0.02825986
37	0xbd6bc35a	-0.05755935
38	0xbd1f0196	-0.03881987
39	0xbca02ea5	-0.019553492
40	0xbcd37588	-0.02581288
41	0xbca1e26c	-0.019761287
42	0xbd79d45e	-0.060993545
43	0x3cffd5cb	0.031229874
44	0x3b919262	0.004442499
45	0xbb9b74a8	-0.004744131
46	0xba9f0259	-0.0012131437
47	0x3b628455	0.003456374
48	0x3cff82c1	0.031190278
49	0xbb3b2c12	-0.0028560204
50	0x3bc12153	0.005893865
51	0x3bc801d6	0.0061037345
52	0xbc1a6225	-0.009422814
53	0x3bb93154	0.0056516323
54	0x3b9c0152	0.0047608996
55	0xbd435bb1	-0.047694866
56	0xbc844c73	-0.016149735
57	0xbd40467a	-0.04694221
58	0xbd2ebb81	-0.042659286
59	0xbc8e36ce	-0.017360117
60	0xbd67bb0c	-0.056574866
61	0x3c292b77	0.010325304
62	0x3c73768a	0.014859805
63	0xbd53c67b	-0.051702958
64	0x3bed7656	0.0072467728
65	0xbc7b8c5c	-0.0153532885
66	0xbd839c3c	-0.06426284
67	0xbd5f6854	-0.054542854
68	0xbc1aaefa	-0.009441132
69	0xbce56c78	-0.028005823
70	0xbae50160	-0.0017471723
71	0x3a45247c	0.000752039
72	0xbd44bc00	-0.048030853
73	0x3aa23a30	0.001237696
74	0xbb6519c8	-0.0034957994
75	0x3d08f3d4	0.033435658
76	0x3d787ce0	0.060665965
77	0x3d6f1c62	0.058376677
78	0x3d3325b9	0.043737147
79	0xbd5d9bca	-0.05410365
80	0x3d1b8267	0.03796616
81	0xbc8653f2	-0.01639745
82	0xbc59b903	-0.013288739
83	0xbd0365c1	-0.032079462
84	0xbc9ca25a	-0.019120384
85	0xbcc55aee	-0.02409121
86	0x3b8f9606	0.004381898
87	0xbc755ec1	-0.014976204
88	0x3d29ff21	0.041503076
89	0xbc2ed8c0	-0.010671794
90	0xbbaaf45a	-0.0052171173
91	0x3cd99c30	0.026563734
92	0xbb3b1077	-0.002854375
93	0xbb03ef3c	-0.0020131608
94	0x3cc1b424	0.023645468
95	0x3d804d10	0.062646985
96	0x3d1d4910	0.038399756
97	0xbca8e89b	-0.020618727
98	0x3d8b32c3	0.067967914
99	0xbd3f910b	-0.046769183
100	0x3b91fba3	0.0044550463
101	0xbd4525b9	-0.04813168
102	0x3c8c21c5	0.017105946
103	0xbc859c5e	-0.016309913
104	0xbd12ebf8	-0.03586957
105	0xbbd14917	-0.006386887
106	0x3bec3ddd	0.007209523
107	0x3d8b3b5b	0.067984305
108	0x3cfac624	0.030612059
109	0xbd0f9025	-0.035049576
110	0xbcbb89bd	-0.022892827
111	0xbcff45aa	-0.031161148
112	0x3d1f0f29	0.038832817
113	0xbbc1083a	-0.0058908733
114	0xbb38c3d6	-0.00281929
115	0xbcab7a91	-0.020932468
116	0xbd68a42f	-0.056797203
117	0xbbe5dacd	-0.0070146085
118	0xbd2bef8b	-0.041976493
119	0x3ceaf384	0.02868057
120	0xbd1fbd0c	-0.03899865
121	0xbd289af6	-0.041163407
122	0x3c278033	0.010223436
123	0xbd8f49ac	-0.06996474
124	0x3b93a733	0.0045060157
125	0xbbb3f197	-0.0054914462
126	0xbc611b8e	-0.01373948
127	0x3d4c8bc0	0.049937963

fc2.weight f4 [4, 128]
0	0x3c4570ed	0.012050849
1	0x3dbabe68	0.09118348
2	0xbd183c60	-0.037166953
3	0xbccc6c70	-0.02495405
4	0xbdd84221	-0.10559488
5	0x3db380c4	0.087647945
6	0xbd8d7b7a	-0.06908317
7	0x3d8f06ce	0.0698372
8	0xbcebe281	-0.028794529
9	0x3d959a58	0.07304829
10	0xbc127bb9	-0.008940631
11	0x3b4608de	0.0030217688
12	0xbccf3091	-0.025291713
13	0x3d644376	0.0557284
14	0x3d6c8971	0.05774826
15	0x3dd86ac3	0.10567238
16	0x3dbc93d9	0.09207887
17	0x3c8a8dc1	0.016913297
18	0x3d77f847	0.06053951
19	0xbd8de814	-0.06929031
20	0x3b06fcf5	0.0020597551
21	0x3d871066	0.06594925
22	0x3db3d257	0.087803535
23	0xbdaaff38	-0.0834946
24	0x3ce0f2b0	0.027459472
25	0x3c193b25	0.00935248
26	0x3d653bf1	0.055965368
27	0x3dc8cdb5	0.098048605
28	0x3d71529b	0.05891667
29	0xbd281e41	-0.041044477
30	0x3d9ff30b	0.07810029
31	0x3d8d37f0	0.06895435
32	0xbdba1ec6	-0.09087901
33	0xbd2e021e	-0.042482488
34	0x3dbfb28b	0.09360226
35	0xbdb1fc74	-0.0869073
36	0x3c5eb181	0.013592125
37	0xbd1a2ee6	-0.037642382
38	0xbd709c83	-0.05874301
39	0xbd4bcdcb	-0.049756806
40	0xbd5901a1	-0.05298007
41	0xbd85b52f	-0.06528699
42	0x3b2e23fd	0.0026571744
43	0x3c98a452	0.018633042
44	0xbcf92431	-0.030412765
45	0xbd62f562	-0.055409797
46	0xbd2b386f	-0.041801866
47	0xbcf86ad4	-0.030324377
48	0x3d9fc50d	0.07801256
49	0xbbb5d7d3	-0.00554941
50	0xbd4778f6	-0.04869934
51	0xbdbb03b4	-0.09131566
52	0x3d91ffb9	0.07128853
53	0xbdb296e9	-0.0872019
54	0x3d862ca2	0.06551482
55	0x3be17d4e	0.0068813926
56	0x3d967444	0.07346395
57	0xbdaab2ed	-0.08334909
58	0xbdb07fae	-0.08618103
59	0xbdac3c8b	-0.08409985
60	0xbdbef16e	-0.09323393
61	0x3dbda6ea	0.09260352
62	0x3dca6b32	0.09883727
63	0xbdb9367f	-0.090435974
64	0xbcec96c4	-0.028880484
65	0xbc222276	-0.009895911
66	0xbda1a5e2	-0.07892968
67	0xbd882e6b	-0.066494785
68	0x3d250120	0.040284276
69	0xbd839002	-0.06423952
70	0xbdbdd50e	-0.092691526
71	0xbd5e28b7	-0.054238047
72	0xbd8c7762	-0.06858708
73	0xbdb74c9c	-0.08950159
74	0x3d02a5a0	0.031896234
75	0x3d158611	0.03650481
76	0x3d2c0df7	0.042005505
77	0x3db1711d	0.08664153
78	0x3d76522b	0.060136955
79	0xbdd14d6b	-0.102198444
80	0x3d9ecbfa	0.07753749
81	0xbce5939e	-0.02802449
82	0xbd98d243	-0.07461979
83	0xbdad06cd	-0.08448563
84	0xbd1532b0	-0.036425292
85	0xbd4c4a62	-0.049875624
86	0x3d949c55	0.072563805
87	0x3c80dda5	0.015730688
88	0x3d8d0329	0.068853684
89	0xbd941136	-0.07229845
90	0xbd818d54	-0.06325784
91	0xbc73b6bf	-0.014875113
92	0x3d77eaff	0.060526844
93	0x3dbf5749	0.0934282
94	0x3dd67af0	0.10472667
95	0x3dc060d3	0.09393468
96	0x3db35a5b	0.08757468
97	0xbd51d0e7	-0.051224615
98	0x3dd9f3c9	0.106422015
99	0xbd6a6fbf	-0.057235476
100	0xbdb7fb1d	-0.08983443
101	0xbd76e9e6	-0.060281657
102	0x3dce65a7	0.100779824
103	0xbd54a61e	-0.051916234
104	0x3cac97a5	0.021068403
105	0xbd698659	-0.05701289
106	0xbd217315	-0.03941639
107	0x3dc1ec84	0.0946894
108	0x3d49beb4	0.049254134
109	0xbda988c9	-0.08278043
110	0xbd939d02	-0.07207681
111	0x3ce48577	0.027895672
112	0x3da73418	0.08164233
113	0x3d911fdd	0.070861556
114	0xbd0ed88a	-0.034874476
115	0xbdc45f38	-0.09588474
116	0x3b9cda5a	0.0047867717
117	0xbbf92e25	-0.007604378
118	0xbdd28e10	-0.102810025
119	0x3c58e92a	0.013239184
120	0xbd917348	-0.07102066
121	0xbc77fd2e	-0.015136046
122	0x3d9eff2b	0.07763513
123	0xbd7cd152	-0.06172306
124	0xbc96677d	-0.018359894
125	0xbbd3bbef	-0.0064616124
126	0x3d3892cf	0.045061883
127	0x3c2f0015	0.010681172
128	0xbd3f0396	-0.04663428
129	0x3d6c9a2e	0.057764225
130	0xbd630fd2	-0.05543501
131	0x3d8aa2a2	0.06769301
132	0xbd8d0d63	-0.06887319
133	0x3d9b5b6c	0.07585797
134	0x3d98cfd0	0.07461512
135	0x3ceca2bc	0.028886192
136	0xbd2c4a32	-0.042062946
137	0xbd01763c	-0.031606898
138	0x3d425c68	0.047451407
139	0xbe428e20	-0.18999529
140	0xbdeecd46	-0.116602466
141	0xbd924d73	-0.071436785
142	0x3d3fb92c	0.046807453
143	0xbc51981b	-0.012792612
144	0xbd4c7917	-0.049920168
145	0xbcfc39b1	-0.030789228
146	0xbde49403	-0.111610435
147	0x3dc1d4e0	0.09464431
148	0xbd8bdc13	-0.06829085
149	0xbdb329d1	-0.0874821
150	0x3cdbd0e3	0.026833003
151	0xbca1aa66	-0.019734573
152	0xbd6ed4db	-0.058308464
153	0xbda18333	-0.078863524
154	0xbdcabe89	-0.09899623
155	0xbbf5de41	-0.0075033014
156	0x3b6d3977	0.0036197582
157	0x3dde34e1	0.108499296
158	0xbdbae13c	-0.09124991
159	0xbdd69764	-0.10478094
160	0x3d40735a	0.046985008
161	0xbd3bfe40	-0.04589677
162	0x3ca5e0cc	0.020248793
163	0x3d36cb19	0.044627283
164	0xbe0a58d6	-0.1351045
165	0xbd15f5e2	-0.036611445
166	0x3d0b267c	0.03397225
167	0x3d832828	0.064041436
168	0xbc79562f	-0.015218302
169	0x3d885669	0.066571064
170	0x3d41dd38	0.04733011
171	0xbd2bb8db	-0.04192434
172	0xbd4a4923	-0.049386155
173	0x3de3af38	0.11117405
174	0x3ddaf17f	0.10690593
175	0x3df845ac	0.12122664
176	0xbdb0c6b0	-0.08631647
177	0x3cb7aa86	0.02242018
178	0x3da3dffa	0.080017045
179	0xbd038ed2	-0.032118626
180	0x3df1c373	0.11804857
181	0xbdb4a72e	-0.088209495
182	0xbc27b480	-0.010235906
183	0x3ba5d21e	0.0050604483
184	0xbcef412e	-0.029205885
185	0x3d56494e	0.052316003
186	0xbc0293cd	-0.007969809
187	0x3ac8a4bd	0.0015307885
188	0x3dcfadda	0.101405814
189	0xbc8a9d33	-0.016920662
190	0xbd442620	-0.04788792
191	0xbbca7663	-0.0061786636
192	0xbdd74f20	-0.10513139
193	0x38b8847f	8.798483e-05
194	0xbcf0dc26	-0.02940185
195	0x3d74d75e	0.059775703
196	0x3d696d21	0.05698884
197	0x3db77a88	0.08958918
198	0xb94c1058	-0.00019461045
199	0xbb00789c	-0.0019603139
200	0xbcf06a72	-0.029347632
201	0x3db992e5	0.09061221
202	0x3986fd11	0.0002574702
203	0xbc93dfe2	-0.018051092
204	0x3d1a028a	0.037600078
205	0xbdbd936a	-0.092566326
206	0xbdb30c25	-0.08742551
207	0x3d68e819	0.05686197
208	0xbd741cab	-0.059597652
209	0xbd06e08b	-0.032928985
210	0x3ce661f2	0.028122876
211	0xbdb6b7d0	-0.08921778
212	0x3dcd5a67	0.100270085
213	0x3d831971	0.06401337
214	0x3c480634	0.01220851
215	0x3c0383fc	0.008027073
216	0xbd8d3a35	-0.06895868
217	0xbdbd0689	-0.09229762
218	0x3dbf075c	0.093275756
219	0xbdcbb8e4	-0.099473745
220	0x3c34cdb2	0.01103537
221	0xbd375227	-0.04475608
222	0xbc99a1f3	-0.018753981
223	0xbcca55af	-0.02469906
224	0xbd877894	-0.06614795
225	0x3c0611ce	0.008182956
226	0xbc1e05ea	-0.009644965
227	0x3db71fbe	0.08941601
228	0xbbe25ae0	-0.006907806
229	0xbd41d17f	-0.04731893
230	0xbdb90881	-0.09034825
231	0x3d8bf5a5	0.06833962
232	0x3d6e80c9	0.058228288
233	0x3dbe88d0	0.09303439
234	0x3d153914	0.036431387
235	0xbd216c62	-0.039410003
236	0x3dcd4507	0.100229315
237	0x3d53a5dc	0.051671848
238	0x3db63c50	0.088982224
239	0x3d9e8f56	0.07742183
240	0xbc8d2957	-0.017231626
241	0xbd3ac1d9	-0.045595024
242	0x3c92d8f1	0.017925711
243	0xbd050bb8	-0.03248188
244	0x3ddc220d	0.10748682
245	0xbd3605fe	-0.04443931
246	0x3b905b98	0.00440545
247	0x3df1bbf1	0.11803425
248	0x3d3f4064	0.046692267
249	0x3c6f0a3d	0.014589843
250	0xbccd6452	-0.02507225
251	0x3d9dd571	0.07706726
252	0x3d693f6b	0.056945246
253	0xbd98f790	-0.07469094
254	0xbcadd5fa	-0.021220196
255	0xbcc0f9ed	-0.023556674

fc2.bias f4 [4]
0	0x3de8e7b6	0.1137232
1	0x3bf7f51c	0.007567061
2	0x3d37f57c	0.044911847
3	0x3aadb19c	0.0013251784
